…
2) one can flip all the bits in the binary SNP matrix (e.g. for matrix m, flipped = m*-1+1). This also can be used to create new inputs, and trains the network not to focus on specific values (0 or 1), but rather on patterns and correlations between values. This seems important since assigning SNPs to bits is arbitrary.

to run, first install python 2.7, with numpy, keras and theano.  Then extract the data running:
python extract.data.set.py

Then fit a simple (and non-optimal) CNN:
python fit.theano.60.py

The CNN fits for 60 epochs and has an architecture as follows:

Layer (type)                 Output Shape              Param #   
=================================================================
conv1d_5 (Conv1D)            (None, 1101, 128)         8832      
_________________________________________________________________
conv1d_6 (Conv1D)            (None, 1100, 64)          16448     
_________________________________________________________________
max_pooling1d_4 (MaxPooling1 (None, 550, 64)           0         
_________________________________________________________________
conv1d_7 (Conv1D)            (None, 549, 64)           8256      
_________________________________________________________________
max_pooling1d_5 (MaxPooling1 (None, 274, 64)           0         
_________________________________________________________________
conv1d_8 (Conv1D)            (None, 273, 64)           8256      
_________________________________________________________________
max_pooling1d_6 (MaxPooling1 (None, 136, 64)           0         
_________________________________________________________________
flatten_2 (Flatten)          (None, 8704)              0         
_________________________________________________________________
dense_2 (Dense)              (None, 128)               1114240   
_________________________________________________________________
dense_3 (Dense)              (None, 3)                 387       
=================================================================
Total params: 1,156,419
Trainable params: 1,156,419
Non-trainable params: 0
_________________________________________________________________


Short runs seem to suggest a test set accuracy of classification of about 85% is possible.  Perhaps better with tuning.  The goal is to get this > 95%.












This directory con
…
